android/app/src/main/assets/mnist.tflite (tflite, 117216 bytes, 6 tensors)

sequential/conv2d_1/BiasAdd;sequential/conv2d_1/Conv2D;sequential/conv2d_1/BiasAdd/ReadVariableOp/resource f4 [64]
0	0x3da526b0	0.0806402
1	0xbcff1f93	-0.031142985
2	0xbd05841c	-0.032596692
3	0xbc4b8d60	-0.012423843
4	0x3c273cbb	0.01020735
5	0xbbe311ef	-0.006929628
6	0xbd0cac51	-0.03434402
7	0xbcd9b999	-0.026577758
8	0x3c87ef37	0.016593559
9	0xbd4a4618	-0.049383253
10	0xbd4df776	-0.050284825
11	0xbcd54cf5	-0.026037673
12	0xbcffe1c0	-0.031235576
13	0x3cb34dba	0.021887649
14	0x3cd3749a	0.025812436
15	0xbd0aa62a	-0.033849873
16	0xbcfffe10	-0.031249076
17	0xbd2d8706	-0.042365097
18	0x3cb25cc0	0.021772742
19	0x3c65b23f	0.014019548
20	0xbd08c6d7	-0.033392753
21	0xbd73ee9b	-0.059553724
22	0x3c939b65	0.018018434
23	0xbcda1ce7	-0.02662511
24	0x3c058340	0.008148968
25	0xbc22cf83	-0.00993717
26	0x3ce29707	0.027659906
27	0xbd4ff986	-0.050775073
28	0x3b667877	0.0035167017
29	0xbd3b222b	-0.045686882
30	0xbdc4571b	-0.095869265
31	0xbb127eec	-0.0022353483
32	0x3cfb8aa6	0.030705761
33	0xbdc58c28	-0.09645873
34	0xbd3ebc59	-0.04656634
35	0xbd1b774e	-0.037955575
36	0xbd4f3895	-0.05059107
37	0xbd94aa93	-0.07259097
38	0xbd29a543	-0.04141737
39	0x3cd97a67	0.026547624
40	0x3bebdc6e	0.007197908
41	0xbd43e9d2	-0.04783041
42	0xbd018d2e	-0.03162878
43	0xbcd53bef	-0.026029555
44	0x3dbedd43	0.09319546
45	0xbd399312	-0.045306273
46	0x3d1ac840	0.03778863
47	0xbcf5c8d7	-0.030002994
48	0xbcb5fd1f	-0.022215424
49	0xbc0be727	-0.008538998
50	0xbc069209	-0.008213528
51	0xbd2f9fc2	-0.042876966
52	0xbd44b231	-0.0480215
53	0xbace68f3	-0.001574783
54	0x3c57ae96	0.013164183
55	0xbd7cd279	-0.06172416
56	0xbc16f276	-0.009213081
57	0xbc3b94ef	-0.011449083
58	0xbd1dd1da	-0.03853021
59	0xbcc0ae4f	-0.023520617
60	0x3bc4ff01	0.006011844
61	0xbd201689	-0.03908399
62	0xbd77f196	-0.06053313
63	0xbb7a1caa	-0.0038164058

sequential/conv2d/BiasAdd;sequential/conv2d/Conv2D;sequential/conv2d/BiasAdd/ReadVariableOp/resource f4 [32]
0	0xbdc3f5ca	-0.09568365
1	0xbc5b70f2	-0.0133936275
2	0xbc751b91	-0.014960186
3	0xbc4d64eb	-0.012536268
4	0xbbd68d70	-0.0065476224
5	0xbcee2f46	-0.029075276
6	0xbca78ba5	-0.02045233
7	0x3d0c0696	0.03418597
8	0xbda057c7	-0.07829242
9	0xbd09d35c	-0.033648834
10	0x3d1b88f6	0.037972413
11	0xbc49fa10	-0.012327686
12	0xbc67a782	-0.014139058
13	0x3c9097bb	0.017650476
14	0x3d8e3869	0.06944353
15	0xbd6a38b7	-0.057182994
16	0xbe063462	-0.1310592
17	0xbc21d89a	-0.009878302
18	0xbd372751	-0.04471523
19	0xbd914dcc	-0.07094917
20	0x3d6d6989	0.057961974
21	0xbcbae9b2	-0.022816513
22	0x3d41c931	0.04731101
23	0xbd36a161	-0.044587497
24	0xbccb40a4	-0.024811096
25	0xbc2bf8e1	-0.010496349
26	0xbcc2b046	-0.023765694
27	0x3d321364	0.043475524
28	0x3cc68554	0.024233498
29	0xbba4681e	-0.0050172945
30	0xbba48ae1	-0.0050214385
31	0xbc9690ba	-0.018379558

sequential/conv2d_1/Conv2D i1 [64, 3, 3, 32]
0	0xaf	-81
1	0x3c	60
2	0xf3	-13
3	0x21	33
4	0x0c	12
5	0xed	-19
6	0xf9	-7
7	0x13	19
8	0xae	-82
9	0x04	4
10	0x36	54
11	0xe1	-31
12	0x25	37
13	0x27	39
14	0xe7	-25
15	0x06	6
16	0xb5	-75
17	0x9d	-99
18	0xd0	-48
19	0xa6	-90
20	0xe4	-28
21	0xc0	-64
22	0xcc	-52
23	0xb5	-75
24	0xb8	-72
25	0xa6	-90
26	0xcb	-53
27	0x50	80
28	0x1d	29
29	0xbd	-67
30	0x22	34
31	0xf5	-11
32	0xc8	-56
33	0x29	41
34	0x03	3
35	0xd5	-43
36	0xc1	-63
37	0x20	32
38	0x29	41
39	0xd6	-42
40	0xe8	-24
41	0xfb	-5
42	0x46	70
43	0xcc	-52
44	0xf8	-8
45	0x2e	46
46	0xe7	-25
47	0xea	-22
48	0xfa	-6
49	0xc4	-60
50	0xc4	-60
51	0xcb	-53
52	0xdd	-35
53	0xe9	-23
54	0x09	9
55	0xeb	-21
56	0x9b	-101
57	0xd7	-41
58	0xca	-54
59	0xef	-17
60	0xf5	-11
61	0xb0	-80
62	0xd5	-43
63	0xfc	-4
64	0xe1	-31
65	0x3e	62
66	0x24	36
67	0xeb	-21
68	0xeb	-21
69	0x34	52
70	0x3a	58
71	0xf3	-13
72	0x16	22
73	0x06	6
74	0x49	73
75	0xe0	-32
76	0xb1	-79
77	0x4f	79
78	0x1e	30
79	0xfc	-4
80	0x10	16
81	0x22	34
82	0xe6	-26
83	0x1d	29
84	0xec	-20
85	0x35	53
86	0x41	65
87	0x16	22
88	0xae	-82
89	0x1d	29
90	0xdd	-35
91	0xd1	-47
92	0xd2	-46
93	0x0c	12
94	0xcf	-49
95	0xfc	-4
96	0x02	2
97	0xf8	-8
98	0xa5	-91
99	0x22	34
100	0x19	25
101	0xfb	-5
102	0xfb	-5
103	0x2e	46
104	0xcf	-49
105	0xc9	-55
106	0xf2	-14
107	0x1d	29
108	0x22	34
109	0xff	-1
110	0xde	-34
111	0xf6	-10
112	0xe1	-31
113	0xd1	-47
114	0x12	18
115	0x07	7
116	0xcb	-53
117	0xc9	-55
118	0xb0	-80
119	0xe8	-24
120	0xec	-20
121	0xd3	-45
122	0xf1	-15
123	0x32	50
124	0x36	54
125	0x12	18
126	0x09	9
127	0x01	1
128	0xba	-70
129	0x0e	14
130	0xc1	-63
131	0xea	-22
132	0x11	17
133	0x11	17
134	0x0e	14
135	0xef	-17
136	0xdd	-35
137	0xc9	-55
138	0xf1	-15
139	0xe9	-23
140	0x0a	10
141	0x23	35
142	0xfb	-5
143	0xb7	-73
144	0xd3	-45
145	0xb0	-80
146	0xde	-34
147	0xfa	-6
148	0xb9	-71
149	0xb7	-73
150	0xdb	-37
151	0xd9	-39
152	0x9c	-100
153	0xa1	-95
154	0xf7	-9
155	0x0d	13
156	0x17	23
157	0xf5	-11
158	0xe4	-28
159	0x10	16
160	0xbe	-66
161	0xea	-22
162	0xdb	-37
163	0xb0	-80
164	0xd2	-46
165	0x2e	46
166	0x30	48
167	0xb1	-79
168	0x05	5
169	0xcc	-52
170	0x08	8
171	0xcb	-53
172	0xbd	-67
173	0x24	36
174	0x1e	30
175	0xc6	-58
176	0xce	-50
177	0xe1	-31
178	0xce	-50
179	0xf8	-8
180	0xac	-84
181	0xfd	-3
182	0x21	33
183	0xf1	-15
184	0x81	-127
185	0xf8	-8
186	0xca	-54
187	0xd7	-41
188	0xe1	-31
189	0xe0	-32
190	0xa3	-93
191	0xf5	-11
192	0x14	20
193	0x09	9
194	0xf2	-14
195	0x2d	45
196	0x34	52
197	0x12	18
198	0xa0	-96
199	0x2c	44
200	0x15	21
201	0xf8	-8
202	0xdd	-35
203	0x22	34
204	0x3d	61
205	0xc5	-59
206	0x02	2
207	0x0d	13
208	0xeb	-21
209	0x2d	45
210	0x10	16
211	0x29	41
212	0x1a	26
213	0x0d	13
214	0xf5	-11
215	0x07	7
216	0x29	41
217	0x0e	14
218	0x2c	44
219	0x28	40
220	0x39	57
221	0x31	49
222	0x21	33
223	0x14	20
224	0x11	17
225	0xea	-22
226	0xc0	-64
227	0x16	22
228	0x15	21
229	0x0a	10
230	0xcb	-53
231	0x07	7
232	0xea	-22
233	0xd3	-45
234	0xe9	-23
235	0xf5	-11
236	0x1e	30
237	0xce	-50
238	0xf1	-15
239	0x00	0
240	0xcc	-52
241	0xe5	-27
242	0xf9	-7
243	0xf2	-14
244	0xd6	-42
245	0xd2	-46
246	0xbf	-65
247	0xf2	-14
248	0x02	2
249	0xe6	-26
250	0x1b	27
251	0x19	25
252	0x0e	14
253	0x1f	31
254	0x1b	27
255	0xf0	-16

sequential/conv2d/Conv2D f4 [32, 3, 3, 1]
0	0xbcd39bd3	-0.025831139
1	0xbba3ec84	-0.00500256
2	0xbe346de0	-0.17620039
3	0x3e434dd5	0.1907266
4	0x3c7d9c63	0.01547918
5	0xbd5ec9e0	-0.05439174
6	0x3dee5c38	0.11638683
7	0x3def9dc5	0.11700014
8	0x3c923943	0.01784957
9	0xbe9f3173	-0.31092414
10	0xbcb6c97f	-0.022312878
11	0x3e8053c3	0.25063905
12	0xbe5f9620	-0.21834612
13	0xbcef2723	-0.029193467
14	0x3e00a971	0.12564637
15	0xbd8a6f6b	-0.067595325
16	0x3dd8752d	0.105692245
17	0x3df6c51f	0.120493166
18	0x3d5df1fa	0.054185845
19	0xbde7cea0	-0.113187075
20	0xbd916b48	-0.071005404
21	0x3cb921a9	0.022599058
22	0x3e832380	0.25613022
23	0x3e82f4a5	0.25577274
24	0xbe976cae	-0.29575104
25	0xbd38a14d	-0.045075703
26	0x3dffee8a	0.124966696
27	0x3b489e8e	0.0030612084
28	0xbe61ebb8	-0.22062576
29	0xbe638597	-0.22218929
30	0x3de137ec	0.109969944
31	0xbe3007ff	-0.1719055
32	0x3d5c60e4	0.05380334
33	0x3e74eac2	0.23917678
34	0x3d68b99a	0.05681763
35	0x3e19781f	0.14987229
36	0xbdd828ff	-0.105546944
37	0x3d6a3833	0.057182502
38	0xbd9726f2	-0.07380475
39	0xbe0f95da	-0.14022008
40	0x3e030a1e	0.12796828
41	0xbdd80d81	-0.10549451
42	0x3e86595b	0.26240048
43	0x3e864221	0.26222327
44	0xbe2ae618	-0.16689336
45	0xbcb714e1	-0.022348823
46	0x3e03d9b2	0.12876013
47	0x3e43cfcf	0.19122241
48	0xbe01cb07	-0.12675105
49	0xbd330518	-0.04370603
50	0xbe439654	-0.19100314
51	0x3e05d336	0.13068852
52	0x3e2a47f1	0.16629006
53	0xbe24d8a3	-0.16098265
54	0x3caad2bc	0.02085244
55	0x3e811037	0.25207683
56	0x3e9d82e2	0.30763918
57	0xbe1d4103	-0.15356831
58	0x3c0584bf	0.008149325
59	0xbd38cb15	-0.04511555
60	0xbc4e64b9	-0.012597256
61	0xbea46da3	-0.32114896
62	0xbca2793f	-0.019833205
63	0xbdb609b0	-0.088885665
64	0xbe8f5b4e	-0.27999347
65	0xbe99d290	-0.3004346
66	0x3d987b18	0.07445353
67	0xbcdaaaba	-0.026692737
68	0xbcb868c9	-0.022510903
69	0x3e416180	0.1888485
70	0x3e3c0e14	0.18364745
71	0x3df58011	0.11987317
72	0x3d7b7c22	0.06139768
73	0x3c960f8e	0.018317964
74	0xbcf62022	-0.030044619
75	0x3dc9dae6	0.09856205
76	0x3dbad837	0.09123271
77	0xbe076c7e	-0.1322498
78	0xbd4d1ba3	-0.050075185
79	0x3dac5ac9	0.084157534
80	0xbe0945b7	-0.134055
81	0xbe1e9d93	-0.15489797
82	0xbbbb88d3	-0.005723098
83	0x3c6f21f9	0.014595502
84	0xbe875457	-0.26431534
85	0x3cf7a2a7	0.030228926
86	0x3e167c08	0.14695752
87	0xbddc4f74	-0.10757342
88	0x3e262b51	0.16227461
89	0x3e4d82f7	0.2006949
90	0xbea91b92	-0.33028847
91	0xbd2149ac	-0.0393769
92	0x3decf03d	0.11569259
93	0xbed57022	-0.41687113
94	0xbdc53696	-0.09629552
95	0x3e94b3b2	0.29043347
96	0xbe2046d8	-0.15652025
97	0xbd913c13	-0.070915364
98	0x3e178daf	0.14800142
99	0x3dcf8dcb	0.10134467
100	0xbe737902	-0.2377663
101	0xbea44e45	-0.32090965
102	0x3e9d5941	0.30732158
103	0x3d1792e1	0.03700531
104	0x3dcb6f8c	0.09933385
105	0xbc5e91da	-0.013584578
106	0x3d2b5d25	0.041836876
107	0x3d0ea06d	0.034820963
108	0x3c4a8a3f	0.012362062
109	0x3c9a1968	0.018810943
110	0xbe6c8e4c	-0.23101157
111	0x3db62ba0	0.088950396
112	0xbdb91bb1	-0.09038485
113	0xbe9139c6	-0.2836439
114	0x3ea2679a	0.31719667
115	0xbc53d4a1	-0.012929113
116	0x3e174897	0.14773785
117	0xbc3cce06	-0.011523729
118	0x3e140bd3	0.14457636
119	0x3e9b8778	0.30376792
120	0xbb5619ee	-0.0032669264
121	0x3e4d06f7	0.20022188
122	0x3e24c7e4	0.16091877
123	0xbea4f7a9	-0.322202
124	0xbec1ed9e	-0.378766
125	0x3c2709f6	0.010195246
126	0x3e78b05b	0.24286024
127	0x3e7ecbcf	0.24882434
128	0xbc335576	-0.010945668
129	0xbd43e094	-0.047821596
130	0xbd593c18	-0.053035825
131	0xbeb485d3	-0.3525835
132	0xbe67875a	-0.22610226
133	0xbecf782c	-0.4052137
134	0xbd202558	-0.039098114
135	0xbe40b4ad	-0.18818922
136	0xbcc15687	-0.02360083
137	0xbcfda153	-0.030960714
138	0xbe69aaed	-0.2281911
139	0x3d5ccfae	0.053908996
140	0x3e32b756	0.1745275
141	0x3e5744b3	0.210223
142	0x3e1cc968	0.15311205
143	0x3cb8f2ec	0.022576772
144	0x3c944de2	0.018103544
145	0xbcb68503	-0.022280222
146	0x3d92187b	0.071335755
147	0x3dc928cb	0.09822234
148	0x3e1e3f14	0.1545375
149	0xbdb9c17f	-0.090701096
150	0xbb7dd927	-0.003873417
151	0xbd91b1db	-0.07114001
152	0x3e00f3e0	0.12593031
153	0x3e5e5549	0.21712221
154	0x3df83bfd	0.12120817
155	0xbd313c16	-0.043270193
156	0x3ea680a4	0.3252002
157	0x3b6b3280	0.0035888255
158	0xbeda0acb	-0.4258636
159	0x3dc12a01	0.0943184
160	0xbe376c49	-0.17912401
161	0xbe5f5b73	-0.21812229
162	0xbe2d9a70	-0.16953444
163	0xbde5b0db	-0.11215373
164	0x3d1478ce	0.03624802
165	0x3df5b6ca	0.11997755
166	0x3e372251	0.17884184
167	0xbe260222	-0.16211751
168	0x3e023150	0.12714124
169	0x3df39295	0.11893193
170	0xbcbe1779	-0.023204552
171	0xbe9245b4	-0.28568804
172	0x3dc321f0	0.095279574
173	0x3dc5ff1a	0.096677974
174	0x3d947035	0.07247964
175	0x3e7cbfeb	0.24682586
176	0xbe0fbf1a	-0.14037743
177	0x3e193726	0.14962444
178	0xbdd7f495	-0.10544697
179	0x3d1058f4	0.035241082
180	0xbf00528f	-0.50125974
181	0xbec5b54f	-0.3861489
182	0xbe3474ac	-0.17622632
183	0xbe72e1fc	-0.23719019
184	0x3d0ed2d2	0.034869023
185	0x3db0ad4c	0.08626804
186	0xbd49edfe	-0.049299233
187	0x3e3a4237	0.18189321
188	0x3eb4eb26	0.35335654
189	0x3e39e9e9	0.18155636
190	0x3e1ad65d	0.15120836
191	0xbd44aa02	-0.048013695
192	0x3e8b33bb	0.27187905
193	0x3e06530b	0.13117616
194	0xbe7348bc	-0.23758215
195	0xbcdeff2e	-0.027221289
196	0xbe3dc57c	-0.18532366
197	0xbd473294	-0.04863222
198	0x3e9f868e	0.31157345
199	0x3e258ce9	0.16167034
200	0x3e0f2264	0.13977963
201	0x3dbf136f	0.093298785
202	0xbd49d6e1	-0.04927719
203	0x3d818590	0.06324303
204	0xbe614f37	-0.22002874
205	0xbe5c49b8	-0.21512496
206	0xbe8fcf34	-0.2808777
207	0xbe605fb1	-0.21911503
208	0x3d876e6e	0.0661286
209	0x3cb64abb	0.022252431
210	0xbbd2ff03	-0.006439091
211	0x3e5723fe	0.21009824
212	0xbd810e06	-0.06301503
213	0x3bb6927d	0.005571662
214	0x3e120c78	0.14262569
215	0xbd9b6074	-0.07586756
216	0x3e33a066	0.17541656
217	0xbe0407ee	-0.1289365
218	0xbea70ac3	-0.32625398
219	0x3db20764	0.08692816
220	0xbd8d5084	-0.06900123
221	0xbda85e61	-0.08221126
222	0x3bf7b265	0.007559108
223	0x3ea69dd9	0.32542303
224	0x3e571475	0.21003897
225	0x3e9d400c	0.30712926
226	0x3dabbb50	0.083853364
227	0xbd57c00f	-0.052673396
228	0x3e84d268	0.25941777
229	0xbdd4425d	-0.1036422
230	0xbea0283d	-0.312807
231	0x3d1d178a	0.038352527
232	0xbde5094a	-0.111834124
233	0xbe61c64b	-0.22048299
234	0xbc904d31	-0.017614933
235	0xbdc65cd3	-0.096856736
236	0x3c73b365	0.014874314
237	0x3e57745f	0.21040486
238	0xbda0e728	-0.078565896
239	0xbe0c1df7	-0.13683306
240	0x3e122b4d	0.1427433
241	0xbde11434	-0.109901816
242	0x3dd7ef8b	0.10543736
243	0xbe7760fc	-0.2415809
244	0xbe9934c0	-0.29923058
245	0xbe6e83ff	-0.2329254
246	0xbd9b5a16	-0.07585542
247	0xbd00a0b4	-0.03140326
248	0xbd899d7d	-0.06719492
249	0x3e85c5d7	0.26127502
250	0x3e396b46	0.18107328
251	0x3d0c52e2	0.03425873
252	0xbe3cefe8	-0.18450892
253	0xbeb18d4d	-0.34678116
254	0xbe021f65	-0.12707289
255	0x3e0955a0	0.1341157

sequential/dense/BiasAdd/ReadVariableOp/resource f4 [10]
0	0x3b637110	0.0034704842
1	0x3e2c4b8e	0.16825697
2	0x3d1910c4	0.037369505
3	0xbd33b5fe	-0.043874733
4	0xbcec48c0	-0.028843284
5	0x3c912df5	0.01772211
6	0xbcb2b93f	-0.021816848
7	0x3d4f5bd8	0.0506247
8	0xbdda2846	-0.10652213
9	0xbd0d455c	-0.034489974

sequential/dense/MatMul i1 [10, 9216] scale=0.004151712 zero_point=0
0	0x06	0.024910273
1	0x05	0.020758562
2	0x05	0.020758562
3	0xfd	-0.0124551365
4	0x17	0.09548938
5	0xfe	-0.008303424
6	0xfd	-0.0124551365
7	0xf8	-0.033213697
8	0xfb	-0.020758562
9	0xfe	-0.008303424
10	0xfa	-0.024910273
11	0xff	-0.004151712
12	0xfb	-0.020758562
13	0xf7	-0.03736541
14	0xeb	-0.08718596
15	0xfa	-0.024910273
16	0xfc	-0.016606849
17	0xf6	-0.041517124
18	0xfe	-0.008303424
19	0x09	0.03736541
20	0xf9	-0.029061984
21	0x02	0.008303424
22	0x07	0.029061984
23	0x00	0.0
24	0xe1	-0.12870307
25	0x02	0.008303424
26	0xfc	-0.016606849
27	0xfa	-0.024910273
28	0xf9	-0.029061984
29	0x01	0.004151712
30	0x01	0.004151712
31	0x00	0.0
32	0xf8	-0.033213697
33	0xfa	-0.024910273
34	0xf7	-0.03736541
35	0xff	-0.004151712
36	0xf7	-0.03736541
37	0x00	0.0
38	0xf7	-0.03736541
39	0xee	-0.07473082
40	0xf9	-0.029061984
41	0xe6	-0.10794452
42	0xe8	-0.09964109
43	0xeb	-0.08718596
44	0x2b	0.17852363
45	0x02	0.008303424
46	0xfe	-0.008303424
47	0x02	0.008303424
48	0xf0	-0.066427395
49	0x02	0.008303424
50	0xf6	-0.041517124
51	0x04	0.016606849
52	0xf5	-0.045668833
53	0xff	-0.004151712
54	0xea	-0.091337666
55	0xfa	-0.024910273
56	0xf0	-0.066427395
57	0xfb	-0.020758562
58	0xf6	-0.041517124
59	0x10	0.066427395
60	0x12	0.07473082
61	0xf1	-0.06227568
62	0xfa	-0.024910273
63	0xe7	-0.1037928
64	0x15	0.08718596
65	0xef	-0.070579104
66	0xfa	-0.024910273
67	0x10	0.066427395
68	0x07	0.029061984
69	0xf6	-0.041517124
70	0x00	0.0
71	0xfc	-0.016606849
72	0xf1	-0.06227568
73	0xf6	-0.041517124
74	0xff	-0.004151712
75	0xf5	-0.045668833
76	0xf8	-0.033213697
77	0xea	-0.091337666
78	0xda	-0.15776506
79	0x00	0.0
80	0xf8	-0.033213697
81	0xea	-0.091337666
82	0xfd	-0.0124551365
83	0xf5	-0.045668833
84	0xf8	-0.033213697
85	0xf6	-0.041517124
86	0xf2	-0.05812397
87	0xf5	-0.045668833
88	0xd2	-0.19097877
89	0xf3	-0.05397226
90	0x04	0.016606849
91	0xfc	-0.016606849
92	0xfa	-0.024910273
93	0x06	0.024910273
94	0xf4	-0.049820546
95	0xf6	-0.041517124
96	0xdd	-0.14530993
97	0xf6	-0.041517124
98	0xf3	-0.05397226
99	0xfa	-0.024910273
100	0xf7	-0.03736541
101	0xfd	-0.0124551365
102	0xf8	-0.033213697
103	0xf9	-0.029061984
104	0xf9	-0.029061984
105	0xe1	-0.12870307
106	0xe5	-0.11209623
107	0xf1	-0.06227568
108	0xe3	-0.120399654
109	0xf8	-0.033213697
110	0xf5	-0.045668833
111	0xf9	-0.029061984
112	0xf9	-0.029061984
113	0xef	-0.070579104
114	0xf2	-0.05812397
115	0xfd	-0.0124551365
116	0xf9	-0.029061984
117	0xff	-0.004151712
118	0xd9	-0.16191678
119	0xfa	-0.024910273
120	0xf5	-0.045668833
121	0xf9	-0.029061984
122	0xee	-0.07473082
123	0x11	0.070579104
124	0xe6	-0.10794452
125	0x0d	0.05397226
126	0xf3	-0.05397226
127	0xe7	-0.1037928
128	0xe3	-0.120399654
129	0xef	-0.070579104
130	0x04	0.016606849
131	0x05	0.020758562
132	0x0e	0.05812397
133	0xf5	-0.045668833
134	0x0d	0.05397226
135	0xef	-0.070579104
136	0x02	0.008303424
137	0x01	0.004151712
138	0xfe	-0.008303424
139	0xf7	-0.03736541
140	0x01	0.004151712
141	0xd3	-0.18682705
142	0xfe	-0.008303424
143	0xf9	-0.029061984
144	0xf5	-0.045668833
145	0xf7	-0.03736541
146	0xe4	-0.11624794
147	0xfa	-0.024910273
148	0xed	-0.07888253
149	0xf6	-0.041517124
150	0xec	-0.08303425
151	0xf8	-0.033213697
152	0xee	-0.07473082
153	0xe0	-0.13285479
154	0xf3	-0.05397226
155	0x03	0.0124551365
156	0xf9	-0.029061984
157	0x05	0.020758562
158	0xf5	-0.045668833
159	0xf5	-0.045668833
160	0xd7	-0.1702202
161	0xfb	-0.020758562
162	0xf9	-0.029061984
163	0xf9	-0.029061984
164	0xf8	-0.033213697
165	0xfc	-0.016606849
166	0xfe	-0.008303424
167	0xe4	-0.11624794
168	0xf8	-0.033213697
169	0xf7	-0.03736541
170	0xe4	-0.11624794
171	0xf6	-0.041517124
172	0xee	-0.07473082
173	0xf9	-0.029061984
174	0x00	0.0
175	0xf8	-0.033213697
176	0xf8	-0.033213697
177	0x02	0.008303424
178	0x02	0.008303424
179	0xef	-0.070579104
180	0xf5	-0.045668833
181	0xf0	-0.066427395
182	0xe3	-0.120399654
183	0x05	0.020758562
184	0x05	0.020758562
185	0xfe	-0.008303424
186	0xf9	-0.029061984
187	0x1c	0.11624794
188	0xe0	-0.13285479
189	0x07	0.029061984
190	0xee	-0.07473082
191	0xf4	-0.049820546
192	0xde	-0.14115821
193	0xfc	-0.016606849
194	0xf9	-0.029061984
195	0xf0	-0.066427395
196	0x14	0.08303425
197	0x0c	0.049820546
198	0xfc	-0.016606849
199	0xeb	-0.08718596
200	0xf2	-0.05812397
201	0x05	0.020758562
202	0xed	-0.07888253
203	0xf0	-0.066427395
204	0xf4	-0.049820546
205	0xed	-0.07888253
206	0xe6	-0.10794452
207	0xec	-0.08303425
208	0xf2	-0.05812397
209	0x03	0.0124551365
210	0x03	0.0124551365
211	0xda	-0.15776506
212	0xe8	-0.09964109
213	0x01	0.004151712
214	0xff	-0.004151712
215	0x18	0.09964109
216	0xfa	-0.024910273
217	0xdb	-0.15361334
218	0xe8	-0.09964109
219	0xef	-0.070579104
220	0xfc	-0.016606849
221	0x01	0.004151712
222	0xf8	-0.033213697
223	0xfe	-0.008303424
224	0xf5	-0.045668833
225	0x05	0.020758562
226	0x00	0.0
227	0xf8	-0.033213697
228	0x02	0.008303424
229	0x00	0.0
230	0x00	0.0
231	0xed	-0.07888253
232	0xf7	-0.03736541
233	0xf3	-0.05397226
234	0x11	0.070579104
235	0xf3	-0.05397226
236	0xdf	-0.1370065
237	0xf9	-0.029061984
238	0x00	0.0
239	0xec	-0.08303425
240	0x0d	0.05397226
241	0xf5	-0.045668833
242	0xfc	-0.016606849
243	0x02	0.008303424
244	0x04	0.016606849
245	0xe2	-0.12455136
246	0xcc	-0.21588904
247	0xf6	-0.041517124
248	0xef	-0.070579104
249	0x03	0.0124551365
250	0xfd	-0.0124551365
251	0x25	0.15361334
252	0x03	0.0124551365
253	0xf1	-0.06227568
254	0xf7	-0.03736541
255	0xf1	-0.06227568
