model/exp02/mnist.tflite (tflite, 116400 bytes, 6 tensors)

sequential_1/conv2d_3/BiasAdd;sequential_1/conv2d_3/Conv2D;sequential_1/conv2d_3/BiasAdd/ReadVariableOp/resource f4 [64]
-0.017374868 0.031596385 -0.034920845 -0.0026416352 -0.027895413 -0.060931604 -0.0073653148 0.0673731
-0.033756506 0.0007488614 -0.028565424 -0.06813277 -0.06413296 0.05310761 0.01795006 0.0159544
-0.0701342 0.0035435818 -0.0311492 -0.040714286 0.02574324 0.004240843 -0.0028414826 0.001986493
-0.0003048301 -0.026541082 -0.06291011 0.033853523 0.03564701 -0.06395587 -0.012218911 0.00083759404
-0.017155424 -0.009478078 0.06017552 -0.010095523 -0.05690102 0.026670692 -0.0033864218 -0.028307684
-0.083760485 -0.0054512788 -0.038568955 -0.00026264452 -0.038845006 -0.0054079276 -0.05621991 0.037130836
-0.03543093 0.017349927 0.04084815 0.01875168 0.089997426 -0.032200437 -0.032889556 -0.010704197
0.0041114264 0.03231254 -0.032062184 -0.034285486 -0.054514613 -0.0022812304 -0.044083342 -0.041272704
00000000: bd55 8ebc 366b 013d 2909 0fbd 491f 2dbb
00000010: ec84 e4bc 6b93 79bd bd58 f1bb e8fa 893d
00000020: 4344 0abd 3d4f 443a 0902 eabc 3289 8bbd
00000030: 2458 83bd 5e87 593d 010c 933c cdb2 823c
00000040: 85a2 8fbd 703b 683b 9b2c ffbc 06c4 26bd
00000050: 7de3 d23c c5f6 8a3b 2b38 3abb d22f 023b
00000060: 9ad1 9fb9 af6c d9bc 04d7 80bd fea9 0a3d
00000070: 9902 123d 4cfb 82bd d431 48bc fc91 5b3a
00000080: 8889 8cbc f149 1bbc 9b7a 763d b167 25bc
00000090: 0b11 69bd 7f7c da3c bbee 5dbb 84e5 e7bc
000000a0: 9e8a abbd a4a0 b2bb 7bfa 1dbd 8db3 89b9
000000b0: f11b 1fbd fc34 b1bb d946 66bd 8116 183d
000000c0: 0620 11bd 6f21 8e3c 6450 273d 209d 993c
000000d0: 9250 b83d 9be4 03bd 33b7 06bd a860 2fbc
000000e0: 25b9 863b 275a 043d a353 03bd f06e 0cbd
000000f0: b74a 5fbd b280 15bb bc90 34bd 910d 29bd

sequential_1/conv2d_2/BiasAdd;sequential_1/conv2d_2/Conv2D;sequential_1/conv2d_2/BiasAdd/ReadVariableOp/resource f4 [32]
-0.020744912 -0.010996688 -0.0054077567 0.03687516 -0.015256453 0.13009201 -0.013999411 -0.007282451
-0.004965549 -0.059023608 -0.002301358 -0.06684073 -0.014473681 0.01763118 0.10403388 -0.0031939715
-0.0035789656 0.026343593 -0.020012135 0.0636 -0.039492767 0.014490056 0.017227443 -0.006346425
-0.009081368 -0.012312921 0.08168339 -0.0032837293 -0.004566051 -0.0044087656 0.043375287 0.041125655
00000000: 3cf1 a9bc 742b 34bc 8d33 b1bb 680a 173d
00000010: 34f6 79bc d736 053e c95d 65bc a0a1 eebb
00000020: 0bb6 a2bb bdc2 71bd 61d2 16bb cbe3 88bd
00000030: 0523 6dbc 446f 903c b70f d53d f351 51bb
00000040: 148d 6abb 85ce d73c 7df0 a3bc b840 823d
00000050: 2bc3 21bd b367 6d3c 9120 8d3c acf5 cfbb
00000060: 05ca 14bc 22bc 49bc 9f49 a73d d633 57bb
00000070: d09e 95bb 6877 90bb 49aa 313d 6073 283d

sequential_1/conv2d_3/Conv2D i1 [64, 3, 3, 32]
-48 -99 -124 1 -40 -9 -31 -31
-64 19 6 -21 -71 -2 -22 -112
-112 -43 -5 8 -38 9 -3 -1
-10 -95 -4 -56 -63 -1 29 1
-48 -41 -72 -6 -39 8 1 21
-26 10 18 -52 -13 -51 17 -51
-26 -59 -32 -6 -39 25 -22 -16
-2 -68 24 -55 -26 -62 -31 -4
-86 29 -67 -30 -33 35 -37 42
6 1 22 -24 11 -98 2 -72
0 -41 -16 31 -49 37 -9 -17
48 -44 25 -8 -26 -50 -14 12
-19 16 9 -1 -127 14 -28 -76
-89 -5 -18 -19 -33 35 54 37
-35 10 -29 -6 -11 -36 3 -34
-30 -48 -53 -54 -38 -17 22 13
-17 34 41 2 -32 37 -45 -19
-53 27 -12 -44 17 4 16 12
6 46 5 -13 -39 -11 -23 -35
-5 -20 -49 -8 -14 -41 -28 -11
-40 1 -9 -1 -43 -10 2 -24
-18 38 -28 -46 -20 -60 -20 -34
-5 -39 1 2 -47 -15 25 6
-6 -20 9 -41 -31 -21 -15 -3
-44 -10 -59 59 -61 -33 2 -7
-9 -67 -4 -48 -23 -48 -36 -6
4 -22 -6 -5 -78 0 -38 36
-67 -58 16 -49 -4 20 18 29
-5 -21 -17 42 3 -25 21 -18
6 8 26 -30 14 -55 -80 -39
48 -28 -14 -4 -15 -10 -24 37
-70 -9 47 9 -12 18 11 6
00000000: d09d 8401 d8f7 e1e1 c013 06eb b9fe ea90
00000010: 90d5 fb08 da09 fdff f6a1 fcc8 c1ff 1d01
00000020: d0d7 b8fa d908 0115 e60a 12cc f3cd 11cd
00000030: e6c5 e0fa d919 eaf0 febc 18c9 e6c2 e1fc
00000040: aa1d bde2 df23 db2a 0601 16e8 0b9e 02b8
00000050: 00d7 f01f cf25 f7ef 30d4 19f8 e6ce f20c
00000060: ed10 09ff 810e e4b4 a7fb eeed df23 3625
00000070: dd0a e3fa f5dc 03de e2d0 cbca daef 160d
00000080: ef22 2902 e025 d3ed cb1b f4d4 1104 100c
00000090: 062e 05f3 d9f5 e9dd fbec cff8 f2d7 e4f5
000000a0: d801 f7ff d5f6 02e8 ee26 e4d2 ecc4 ecde
000000b0: fbd9 0102 d1f1 1906 faec 09d7 e1eb f1fd
000000c0: d4f6 c53b c3df 02f9 f7bd fcd0 e9d0 dcfa
000000d0: 04ea fafb b200 da24 bdc6 10cf fc14 121d
000000e0: fbeb ef2a 03e7 15ee 0608 1ae2 0ec9 b0d9
000000f0: 30e4 f2fc f1f6 e825 baf7 2f09 f412 0b06

sequential_1/conv2d_2/Conv2D f4 [32, 3, 3, 1]
0.028771745 0.098610125 0.40510696 0.085525535 0.12121507 0.018543892 -0.008842494 -0.14192913
-0.4917046 0.40272242 0.028566912 -0.18535219 0.13569164 0.022634853 -0.11580058 -0.28569245
-0.07566164 0.059500255 0.31663164 0.1697137 0.2647923 0.20668608 -0.1067236 -0.23899731
-0.0006888028 -0.2173924 -0.353743 -0.5687342 -0.3903391 0.006013585 -0.27059335 -0.087111644
0.09650399 -0.40975288 0.02940037 0.28834057 -0.010088577 0.034260515 0.07038493 0.07038938
-0.051584195 -0.1757776 0.51932585 0.094848305 -0.33217844 0.17096797 0.06425477 -0.42072618
0.23009014 0.011163423 -0.3561698 -0.12139091 -0.49243414 -0.84750104 -0.45053282 -0.25868747
0.1475539 -0.10494335 0.1817685 0.1325552 -0.02715108 0.20511742 0.203569 0.24057175
-0.14951755 -0.15190057 0.19078699 -0.21892819 -0.37674984 0.3429789 0.1632223 0.038619205
-0.05767808 0.047917128 -0.090003684 0.10713785 -0.15841995 -0.12159696 0.25560525 0.15171088
0.27227238 -0.19098888 0.26453668 0.06847561 0.26536998 0.24845599 0.16487959 0.02255319
-0.24400298 -0.47752947 -0.18162854 -0.36478364 -0.11545267 -0.061588515 -0.052510265 0.09392263
0.11820546 0.30172828 0.3461433 0.1563964 -0.0054040803 0.079037495 -0.03084614 -0.086770214
0.1180805 0.22384682 -0.09632768 0.111476935 0.2554519 0.19809492 -0.010471285 0.0993773
-0.15723857 -0.1132071 0.14818661 -0.21734722 -0.38314122 -0.08299002 0.15288557 0.3495395
0.020563738 0.1763526 0.16915305 -0.31632772 -0.2195964 -0.1981578 -0.016216146 0.3135129
0.3009807 -0.29565138 0.061194576 -0.013583402 -0.74379635 -0.38207906 -0.53447247 0.2945838
0.18618435 0.22653082 -0.06927767 -0.00403139 0.09324589 -0.34029463 -0.28672168 -0.044490293
0.37389058 0.21078359 0.0371812 0.057750404 -0.17501125 -0.3395501 0.24718983 0.043400686
-0.35376155 0.30290726 0.14388877 0.24895088 0.023274055 0.069585495 -0.25135362 -0.47561264
-0.17560893 -0.3530632 -0.36784363 -0.10595282 0.084791146 -0.18623257 0.06241114 0.22423528
-0.0029027439 0.20069191 0.12508897 0.14063612 0.049176592 -0.36192548 0.14452533 -0.002280224
-0.14271604 0.16060136 -0.04881973 -0.58142716 0.092748016 -0.049095053 0.20722671 0.051248737
-0.15472005 -0.033563398 0.077340566 -0.008524668 0.10841579 -0.10266748 -0.21941897 -0.4463739
0.17630953 0.1015727 -0.16404974 0.22678247 0.09417537 0.22746281 0.10328193 0.13649729
-0.09354518 0.19192933 0.0013980843 -0.051489558 0.2655443 -0.19895595 -0.4996228 -0.0039905165
0.030336674 0.11466808 -0.30000436 0.16046758 0.11127166 -0.41607624 -0.016094655 0.40415734
0.19959028 -0.26806495 -0.5853338 0.3512334 0.07366222 -0.06388034 0.049087718 0.21802296
-0.029779745 0.29460263 0.09310516 0.29439062 -0.093456835 -0.20132487 0.103685394 0.018638387
0.05398744 -0.10151699 -0.63129514 -0.49011075 -0.65134877 -0.17862295 0.15830873 -0.009858119
0.088397436 0.3099066 0.31724048 -0.29902077 -0.24143001 -0.13170092 0.007250631 0.057320353
0.23126425 0.3042863 0.14097281 -0.049879525 0.10788992 0.105813906 0.18037434 -0.34762272
00000000: b9b2 eb3c 1bf4 c93d 2e6a cf3e 0328 af3d
00000010: 9b3f f83d 5ce9 973c 1ce0 10bc df55 11be
00000020: b5c0 fbbe a231 ce3e 2805 ea3c f7cc 3dbe
00000030: c0f2 0a3e ba6c b93c db28 edbd 4846 92be
00000040: 7df4 9abd 8ab6 733d 8b1d a23e 6ec9 2d3e
00000050: db92 873e 84a5 533e e791 dabd b6bb 74be
00000060: c690 34ba 1d9c 5ebe cd1d b5be 9198 11bf
00000070: 87da c7be 9b0d c53b 368b 8abe 9767 b2bd
00000080: e2a3 c53d 21cb d1be 0bd9 f03c 60a1 933e
00000090: 8f4a 25bc c154 0c3d f925 903d 4f28 903d
000000a0: f349 53bd 0bff 33be 8af2 043f d43f c23d
000000b0: 4b13 aabe 3a12 2f3e 0198 833d 6c69 d7be
000000c0: c09c 6b3e cae6 363c e35b b6be cc9b f8bd
000000d0: 5420 fcbe d4f5 58bf 3dac e6be af72 84be
000000e0: 5f18 173e 8aec d6bd 8621 3a3e 8dbc 073e
000000f0: f16b debc 4d0a 523e 6474 503e 7158 763e
00000100: 211b 19be d38b 1bbe aa5d 433e b62e 60be
00000110: 5be5 c0be ee9a af3e bf23 273e 2c2f 1e3d
00000120: da3f 6cbd c044 443d da53 b8bd 176b db3d
00000130: d738 22be d407 f9bd b1de 823e 195a 1b3e
00000140: 4967 8b3e 9792 43be 5a71 873e f13c 8c3d
00000150: 93de 873e 3f6b 7e3e 32d6 283e 78c1 b83c
00000160: ebdb 79be be7e f4be d5fc 39be ecc4 babe
00000170: 7372 ecbd 3d44 7cbd 0115 57bd 825a c03d
00000180: b415 f23d 217c 9a3e b239 b13e 6126 203e
00000190: b614 b1bb 69de a13d 0bb1 fcbc 95b4 b1bd
000001a0: 30d4 f13d 1a38 653e 7247 c5bd 054e e43d
000001b0: 97ca 823e 65d9 4a3e c18f 2bbc 5386 cb3d
000001c0: 2603 21be 20d9 e7bd 3bbe 173e 4590 5ebe
000001d0: 162b c4be acf6 a9bd 098e 1c3e d7f6 b23e
000001e0: 4975 a83c c795 343e 7536 2d3e b5f5 a1be
000001f0: e1dd 60be e1e9 4abe b9d7 84bc c384 a03e
00000200: 241a 9a3e 9e5f 97be 2aa7 7a3d eb8c 5ebc
00000210: 7069 3ebf de9f c3be 30d3 08bf b0d3 963e
00000220: 1ca7 3e3e b2f7 673e 73e1 8dbd c019 84bb
00000230: b4f7 be3d 193b aebe 2fcd 92be 743b 36bd
00000240: 966e bf3e a7d7 573e 504b 183d b08b 6c3d
00000250: 2636 33be 83d9 adbe 551f 7d3e ebc4 313d
00000260: 3c20 b5be a916 9b3e 9457 133e fbec 7e3e
00000270: 3ba9 be3c d782 8e3d 6cb1 80be 8083 f3be
00000280: d4d2 33be b3c4 b4be 0056 bcbe cbfd d8bd
00000290: fba6 ad3d c0b3 3ebe d3a2 7f3d ef9d 653e
000002a0: f63b 3ebb 2e82 4d3e 5317 003e ea02 103e
000002b0: 656d 493d 4c4e b9be 73fe 133e d06f 15bb
000002c0: 2724 12be af74 243e 32f7 47bd 69d8 14bf
000002d0: acf2 bd3d e517 49bd 3d33 543e 32ea 513d
000002e0: ef6e 1ebe c679 09bd bb64 9e3d 0dab 0bbc
000002f0: 1909 de3d 5443 d2bd 5eaf 60be 1f8b e4be
00000300: 7c8a 343e 5905 d03d a8fc 27be aa39 683e
00000310: 04df c03d 03ec 683e 7a85 d33d f2c5 0b3e
00000320: 9e94 bfbd 1f89 443e ed3f b73a b7e6 52bd
00000330: 6cf5 873e 1cbb 4bbe 8fce ffbe e1c2 82bb
00000340: 9e84 f83c 19d7 ea3d 2c9a 99be 9d51 243e
00000350: 65e2 e33d f207 d5be f0d8 83bc b6ed ce3e
00000360: 6561 4c3e cf3f 89be 70d8 15bf ddd4 b33e
00000370: 38dc 963d b2d3 82bd 3410 493d 6941 5f3e
00000380: a7f4 f3bc 28d6 963e ebad be3d 5eba 963e
00000390: 4c66 bfbd 1b28 4ebe 0259 d43d 88af 983c
000003a0: ef21 5d3d 24e8 cfbd 8f9c 21bf ccef fabe
000003b0: cbbe 26bf efe8 36be af1b 223e f383 21bc
000003c0: b709 b53d 14ac 9e3e 586d a23e 4019 99be
000003d0: 6e39 77be 9bdc 06be b496 ed3b bfc8 6a3d
000003e0: 89d0 6c3e 6acb 9b3e 2d5b 103e 794e 4cbd
000003f0: 64f5 dc3d f6b4 d83d 0db4 383e 9bfb b1be

sequential_1/dense_1/BiasAdd/ReadVariableOp/resource f4 [10]
0.055320464 0.24611051 -0.08072887 -0.1126744 -0.072823554 -0.057846043 0.04149924 0.037278406
-0.100274965 0.09301526
00000000: b697 623d 6504 7c3e 2e55 a5bd d6c1 e6bd
00000010: 8424 95bd f9ef 6cbd 1bfb 293d 3eb1 183d
00000020: f65c cdbd c97e be3d

sequential_1/dense_1/MatMul i1 [10, 9216] scale=0.0064595602 zero_point=0
0.07105516 -0.07105516 -0.07105516 -0.18732725 0.16794857 -0.23254417 0.0129191205 0.051676482
0.09043384 -0.07751472 -0.0322978 -0.0129191205 0.0 -0.058136042 -0.1291912 -0.14856988
-0.051676482 0.14211032 -0.18732725 -0.07105516 -0.15502945 -0.16148901 0.058136042 -0.23254417
-0.28422064 -0.32297802 0.04521692 -0.20024636 0.01937868 -0.10981253 -0.18086769 -0.07105516
-0.30359933 0.16148901 0.0 -0.14211032 0.14211032 -0.13565077 -0.20024636 -0.0129191205
0.04521692 -0.07751472 0.0064595602 0.103352964 -0.0064595602 -0.058136042 0.103352964 -0.14211032
-0.17440812 -0.07751472 -0.18086769 -0.0064595602 -0.18086769 0.103352964 -0.2260846 -0.41987142
-0.103352964 -0.0645956 -0.01937868 0.07751472 0.058136042 -0.0322978 -0.0129191205 0.025838241
0.13565077 -0.058136042 -0.12273164 -0.21316549 0.116272084 -0.16794857 0.103352964 -0.0064595602
0.1291912 0.03875736 -0.0064595602 0.03875736 0.03875736 0.051676482 -0.14856988 -0.051676482
0.04521692 -0.103352964 0.0 -0.0129191205 -0.058136042 -0.07751472 -0.08397429 -0.23254417
-0.38111407 -0.41987142 0.051676482 -0.0129191205 -0.103352964 -0.058136042 -0.14211032 -0.0129191205
-0.051676482 -0.01937868 0.0 -0.025838241 0.20024636 -0.09043384 -0.2777611 0.0
-0.03875736 -0.025838241 0.0129191205 0.07105516 0.058136042 -0.025838241 0.04521692 -0.04521692
-0.23900373 -0.20670593 -0.14211032 -0.0968934 -0.15502945 0.051676482 -0.20670593 -0.20024636
-0.03875736 -0.18086769 -0.051676482 0.058136042 0.0 -0.0968934 -0.07751472 0.0
0.07751472 0.0129191205 -0.18732725 -0.2777611 0.058136042 -0.18086769 0.0322978 0.03875736
0.0645956 -0.01937868 0.0064595602 -0.0645956 -0.1291912 -0.103352964 -0.09043384 -0.17440812
0.3100589 0.03875736 0.0129191205 -0.03875736 -0.0968934 0.12273164 -0.03875736 -0.36819494
-0.3875736 -0.3746545 -0.0129191205 -0.12273164 0.14211032 -0.0322978 -0.20024636 0.13565077
-0.15502945 -0.0129191205 -0.058136042 -0.09043384 0.20024636 -0.14856988 -0.18086769 0.0129191205
0.025838241 -0.0322978 0.0129191205 -0.0129191205 0.0322978 -0.04521692 -0.0064595602 0.0322978
-0.20024636 -0.08397429 -0.09043384 0.0 -0.18732725 0.15502945 -0.15502945 -0.21316549
0.0064595602 -0.24546328 0.058136042 0.03875736 0.07751472 -0.058136042 -0.03875736 0.0322978
0.03875736 0.03875736 -0.14856988 -0.16148901 0.08397429 0.04521692 0.15502945 -0.04521692
0.051676482 -0.08397429 0.0064595602 0.04521692 -0.01937868 -0.12273164 -0.12273164 -0.12273164
0.21962506 0.09043384 0.025838241 -0.03875736 -0.07751472 0.0968934 -0.07105516 -0.49092656
-0.33589715 -0.31651846 0.0 -0.03875736 -0.0129191205 -0.14211032 -0.16794857 0.025838241
-0.0064595602 -0.03875736 -0.03875736 -0.14856988 0.08397429 -0.23254417 -0.116272084 -0.0129191205
0.07105516 -0.14211032 0.0322978 -0.04521692 0.03875736 -0.103352964 0.0968934 -0.03875736
-0.14856988 -0.16148901 0.12273164 -0.0064595602 -0.17440812 0.0 -0.116272084 -0.2583824
0.058136042 -0.2260846 0.0129191205 -0.025838241 -0.07751472 -0.15502945 -0.0129191205 0.01937868
00000000: 0bf5 f5e3 1adc 0208 0ef4 fbfe 00f7 ece9
00000010: f816 e3f5 e8e7 09dc d4ce 07e1 03ef e4f5
00000020: d119 00ea 16eb e1fe 07f4 0110 fff7 10ea
00000030: e5f4 e4ff e410 ddbf f0f6 fd0c 09fb fe04
00000040: 15f7 eddf 12e6 10ff 1406 ff06 0608 e9f8
00000050: 07f0 00fe f7f4 f3dc c5bf 08fe f0f7 eafe
00000060: f8fd 00fc 1ff2 d500 fafc 020b 09fc 07f9
00000070: dbe0 eaf1 e808 e0e1 fae4 f809 00f1 f400
00000080: 0c02 e3d5 09e4 0506 0afd 01f6 ecf0 f2e5
00000090: 3006 02fa f113 fac7 c4c6 feed 16fb e115
000000a0: e8fe f7f2 1fe9 e402 04fb 02fe 05f9 ff05
000000b0: e1f3 f200 e318 e8df 01da 0906 0cf7 fa05
000000c0: 0606 e9e7 0d07 18f9 08f3 0107 fded eded
000000d0: 220e 04fa f40f f5b4 cccf 00fa feea e604
000000e0: fffa fae9 0ddc eefe 0bea 05f9 06f0 0ffa
000000f0: e9e7 13ff e500 eed8 09dd 02fc f4e8 fe03
