model/exp01/mnist.tflite (tflite, 117216 bytes, 6 tensors)

sequential/conv2d_1/BiasAdd;sequential/conv2d_1/Conv2D;sequential/conv2d_1/BiasAdd/ReadVariableOp/resource f4 [64]
00000000: 957e 72bd aa01 9bbc 505b 0a3b ae15 36bc
00000010: a52a 6abd 9fd6 4abc 64c3 46ba e4cf 87bc
00000020: 3672 dbbc 5859 c33c 888d a7bc efb9 763c
00000030: 4d18 17bd b464 66bd 6906 2c3d 1c13 04bd
00000040: 6abf 493c 731b 6bbc 11b3 dfbc bc81 f1bc
00000050: 2cf5 cfbc b9f7 d9bc 7e78 c9bc 92f7 15bd
00000060: bf68 0dbd 48ca f539 8782 da3b 0198 4abd
00000070: b11e a33b e326 ca3b adb7 bbbc 1cd1 0dbd
00000080: 2487 c6bc 47fc e0bc b87e ad3c 4dc0 bebb
00000090: ba20 f73b d095 46bd b6d4 f53c bfc9 773c
000000a0: 8fef 0ebd 3380 a1bc e7f7 13bd d01b 90bc
000000b0: 1310 083d f14c a53c 28e8 0bbd 6a90 0fbd
000000c0: ac0c 52bd d3ce e43c 8fcb 80bc fc65 25bd
000000d0: 0ebd 4d3c 1be6 493b c2c7 17bc cd57 613c
000000e0: 5ef7 1bbd 2dfd 98bc 914b 52bd c6c2 e7bb
000000f0: 4dba 59bc ec1f 99bc 0b8a 1cbd 639d 72bc
-0.05920275 -0.018921692 0.0021111555 -0.011113567 -0.057169575 -0.012380271 -0.0007582216 -0.016578622
-0.026787858 0.023846313 -0.02045323 0.015058978 -0.03688841 -0.05624838 0.0419983 -0.032244787
0.012313703 -0.014349806 -0.027307065 -0.029480807 -0.025385462 -0.026607381 -0.024593588 -0.036613055
-0.03452372 0.00046880753 0.006668392 -0.04946137 0.004978024 0.0061691864 -0.022914732 -0.03462325
-0.024234362 -0.027464045 0.021178588 -0.005821264 0.007541743 -0.048482716 0.030008655 0.015123784
-0.03489643 -0.01971445 -0.03612509 -0.017591387 0.033218455 0.02017829 -0.03415695 -0.035049833
-0.051281616 0.027930653 -0.015722064 -0.040380463 0.012557281 0.003080732 -0.009263935 0.0137538435
-0.038077705 -0.018675411 -0.051341597 -0.0070727793 -0.0132890465 -0.01869198 -0.038217586 -0.014808032

sequential/conv2d/BiasAdd;sequential/conv2d/Conv2D;sequential/conv2d/BiasAdd/ReadVariableOp/resource f4 [32]
00000000: e52a 1e3c 4a61 373d ddff 16be 6542 983c
00000010: 90bb 493c ed0d e9bd 6077 5fbd e5d3 1f3a
00000020: ad4b d83c c212 dcbc 55ae 6dbc e9ba 42bd
00000030: 55c1 dfbb 8ec7 d6bd 5370 2fbd 3f03 073c
00000040: b620 80bd c8fc e43c f4fa 293c 226e 24bc
00000050: 8fcb d63b 45a1 13bd 4e22 72bc c2bf f8bc
00000060: c04f db3c 8996 9bbd 2ea8 faba 76b7 97bc
00000070: 82ff 363c 7536 e9bc fb79 b7bc 5a73 b33b
0.009653782 0.044770516 -0.14746042 0.018586347 0.012312785 -0.11379609 -0.054557204 0.00060969434
0.026403273 -0.026864413 -0.014506896 -0.047541533 -0.006828467 -0.10487281 -0.04283173 0.00824052
-0.06256239 0.027952567 0.010374773 -0.010036023 0.006555028 -0.03604247 -0.014778687 -0.030364875
0.026771426 -0.07597072 -0.0019123608 -0.018520098 0.011169316 -0.02846835 -0.022397032 0.0054763975

sequential/conv2d_1/Conv2D i1 [64, 3, 3, 32]
00000000: 25c2 13c2 f6f9 ea1d 2305 0df9 0b00 d019
00000010: fbcd ff16 1e29 d711 aaea bc0b f000 0339
00000020: 27dd eec5 b3f4 e7b8 c7da 1dde d0f5 d82b
00000030: ffe0 1c4d 38dd bf1e a901 e8ec d923 f4fa
00000040: 0ff7 f6e6 b7f7 fee1 c1f9 0ae1 c300 ebf4
00000050: e5d3 f101 05c8 faff c3e8 dee7 3316 080e
00000060: d9b0 fbb3 be0e f7e8 ed03 e60e f4f8 effb
00000070: 16d5 c7f0 cf1e d8f5 c2fd cf24 fc13 fb00
00000080: 0581 effc f81d 2cd8 d3e1 f30e bafe 1f16
00000090: 2507 cdd8 f3e3 f208 fb17 b8cd 8f35 fbdc
000000a0: d9bf ff22 2b10 1824 ceec eee0 e6f2 21d1
000000b0: 08fd ba8f bf0c 17cc 1006 e3d4 fb05 fd20
000000c0: d90c 05d4 d2f8 15d2 e82c 070b de19 00c5
000000d0: 0efe b8ec dbf8 28f2 e400 3b22 24eb faf6
000000e0: da09 faeb 1902 28e8 bb0f 0035 d81b 10d8
000000f0: 1217 c2e2 c3ee 480e 0919 3a22 fd07 0bcc
37 -62 19 -62 -10 -7 -22 29
35 5 13 -7 11 0 -48 25
-5 -51 -1 22 30 41 -41 17
-86 -22 -68 11 -16 0 3 57
39 -35 -18 -59 -77 -12 -25 -72
-57 -38 29 -34 -48 -11 -40 43
-1 -32 28 77 56 -35 -65 30
-87 1 -24 -20 -39 35 -12 -6
15 -9 -10 -26 -73 -9 -2 -31
-63 -7 10 -31 -61 0 -21 -12
-27 -45 -15 1 5 -56 -6 -1
-61 -24 -34 -25 51 22 8 14
-39 -80 -5 -77 -66 14 -9 -24
-19 3 -26 14 -12 -8 -17 -5
22 -43 -57 -16 -49 30 -40 -11
-62 -3 -49 36 -4 19 -5 0
5 -127 -17 -4 -8 29 44 -40
-45 -31 -13 14 -70 -2 31 22
37 7 -51 -40 -13 -29 -14 8
-5 23 -72 -51 -113 53 -5 -36
-39 -65 -1 34 43 16 24 36
-50 -20 -18 -32 -26 -14 33 -47
8 -3 -70 -113 -65 12 23 -52
16 6 -29 -44 -5 5 -3 32
-39 12 5 -44 -46 -8 21 -46
-24 44 7 11 -34 25 0 -59
14 -2 -72 -20 -37 -8 40 -14
-28 0 59 34 36 -21 -6 -10
-38 9 -6 -21 25 2 40 -24
-69 15 0 53 -40 27 16 -40
18 23 -62 -30 -61 -18 72 14
9 25 58 34 -3 7 11 -52

sequential/conv2d/Conv2D f4 [32, 3, 3, 1]
00000000: 1598 0d3e 3df2 293e d3f0 8c3d 5f3b 6e3e
00000010: bfd4 e23d 5925 72be 9f54 fe3a 8200 6fbe
00000020: 3acd 9bbe cb9a 0a3e 4f16 7b3e 50cf 373e
00000030: 6520 c2bd 6023 acbc a69a 133d 67c1 b5be
00000040: 0a5a b9be 1166 23be 5dd4 67bd 79f8 55bd
00000050: 9c23 083d 55d6 1abd b466 f43d ed77 f13d
00000060: 58ce cd3d a09d cd3d 75c8 203d 5876 1dbe
00000070: 3616 67be 310f 66be b85e a3bd c409 1dbd
00000080: 2867 d2bd 23b6 9e3e 4b5b 3b3d e389 793e
00000090: dfa3 44be 1b70 a0be 138b 43be dee6 893d
000000a0: 7d03 643d 03c5 973d 7deb 953d 60fa 5a3e
000000b0: 9abf 073e 4b95 063e 34aa b2bd ab78 dbbc
000000c0: eb97 0d3e 5d29 cb3d 16d4 75bd fb0f 203e
000000d0: a531 c53d da4f 983c f753 203e 53aa 59be
000000e0: 9ecc c2be 6a37 943e 30fd 9d3d 622d 99bd
000000f0: a82f 393e 9774 d33c 1602 813d 7992 99be
00000100: 9ee2 30be 8e66 a33a 956b ffbd 3d83 c6bd
00000110: d981 543e e221 843e f158 2ebd 7afb f03d
00000120: a66f 9cbe a9c5 85be 6900 8dbd 41af c6be
00000130: a9d5 59bd 7ef5 553e 279e 27be fc80 abbd
00000140: 18ae 5d3e 5618 9fbd 58fe bb3d ef95 253e
00000150: 6994 95be dfae 91bc 5842 ab3d d8f5 12be
00000160: d298 46be 4e5e fa3d 4350 1bbe 6902 77bd
00000170: eb4a 333e 7fa6 093e 4c29 e6bd 0eb6 1d3e
00000180: a3c5 143e fdad 00be b19a 1cbe 7034 ef3d
00000190: 1686 093e 4566 1bbe 6c60 c7bd b706 593e
000001a0: 5f3b 31bd e538 66be 47a2 37bc d904 643e
000001b0: bad0 cbbe 6991 20bd 81e0 25bd 2b44 6bbd
000001c0: 71db e6bd 7014 803d 24a2 9fbb 8e2e 2c3e
000001d0: 38a6 4f3e e95e eb3d 9549 813d 0bf9 cfbc
000001e0: d687 7bbd 86a2 e33d 0051 693d 5269 20be
000001f0: 7635 70bb bc64 4fbd a2e4 243e 182e 93be
00000200: 42b8 04be 919d 1fbe 6d08 983d a822 94ba
00000210: 325d 1e3e b1c4 0f3e c036 7fbd 81a9 433e
00000220: cb30 233c 4bd5 7ebe 45fb 543e 632a 2ebd
00000230: a63a cbbe 6455 fd3d fb66 24be 88f1 76be
00000240: ab3f ba3c b823 353d b018 87be 575e 143e
00000250: 1c32 ba3d 03ef 51be a189 013e cd08 e53d
00000260: ffce b73d 7306 7bbd dcd3 87be a2d5 89be
00000270: aaab 843e 7549 27bd 6078 27be 00dc 833e
00000280: abb3 8f3e db49 42bd 34d5 c53e 7096 313e
00000290: e089 d2bd ec77 d43d 1b36 40bd 301e 20be
000002a0: f95b 79bd 2d37 34be 85bc f4be a47e a8bd
000002b0: 848a fd3d 6238 7a3e be3d 5e3e 71ef 163e
000002c0: 86d5 73bd 2b20 7c3c 122b 06be d69e 8dbe
000002d0: 1adc 533d 01b9 4f3e 5746 b43c f79b 5c3e
000002e0: 1d5c 013e df66 12be 1ffa 373c a823 3cbe
000002f0: 3f2c c2be 9cc6 46be 3824 c4bd d59b 043e
00000300: d92c 95be 0173 003e 2313 453e 8dad f8bd
00000310: 4baa 113e 252b 2e3e ec75 8fbc de2f 3fbe
00000320: 67e9 5ebe 9627 573e ab35 613e 5271 633e
00000330: 4dff 5fbe 6eb3 dcbd c3b9 2fbd 00aa d53d
00000340: 4320 25bd d334 043e 9cb0 5a3e dca2 9f3d
00000350: 48f1 04be 0a48 8cbd 18f2 dcbc c5d4 26be
00000360: 338e 63be 34aa 6bbe 2784 75be 1458 b63d
00000370: b6bc 8fbc aa73 87bc 254c 863e 7091 e13d
00000380: 5eac 5b3e 3e96 c73d 6a82 2cbe c810 febd
00000390: cd8b 063c 8aef 053e 40d4 14be 0fea 5b3e
000003a0: b2f2 5d3d 29ac 973d d029 5ebd 78bd 4c3e
000003b0: a492 693e 2837 83bc 747f e63d 71be 1c3e
000003c0: c435 95be 24f6 efbe 0e9f 39be ac93 373d
000003d0: 1d56 913e 0bf5 6b3e a2e0 c0bd 5851 5e3c
000003e0: 34ce aa3d cd15 c3be dea7 a0bd 74f1 583d
000003f0: 1dbc 383e f2c0 023c 9d1e 693e 80fa 2bbd
0.13827546 0.16596313 0.06881871 0.23264836 0.11075734 -0.2364706 0.0019403881 -0.23340037
-0.30430013 0.13535611 0.24520229 0.17950177 -0.09478835 -0.021012962 0.036036156 -0.35499117
-0.36201507 -0.15956904 -0.05659901 -0.052238915 0.033237085 -0.03780206 0.119336516 0.11790452
0.100491226 0.1003983 0.03925367 -0.15377176 -0.22567067 -0.22466733 -0.079770505 -0.03833939
-0.10273582 0.30998334 0.04574136 0.24369006 -0.19203137 -0.3133553 -0.19096021 0.067334875
0.05566739 0.07410624 0.073203065 0.21384573 0.13256684 0.13142888 -0.0872387 -0.026790937
0.13827483 0.09919999 -0.060016714 0.15631096 0.096286096 0.018592764 0.1565703 -0.2125638
-0.38046736 0.28948528 0.07714307 -0.07479359 0.18084586 0.02581243 0.06299226 -0.29994562
-0.17273948 0.0012466477 -0.124716915 -0.096930005 0.20752658 0.258071 -0.04256529 0.11766715
-0.3055393 -0.26127365 -0.06884844 -0.38805583 -0.053182278 0.20894429 -0.16368924 -0.08374211
0.21648443 -0.077683136 0.091793716 0.16170476 -0.2921479 -0.01778358 0.083622634 -0.14351594
-0.19394234 0.122250184 -0.15167336 -0.060305033 0.17509048 0.1344242 -0.112383455 0.1540148
0.14528517 -0.12566371 -0.15293385 0.116799235 0.13430056 -0.15175731 -0.09735188 0.21193968
-0.04326951 -0.22482641 -0.0112081235 0.22267474 -0.39807683 -0.039201174 -0.040497307 -0.057438057
-0.11272324 0.06253898 -0.0048716236 0.16814634 0.20278251 0.11492712 0.06312863 -0.025387308
-0.06140884 0.11114983 0.056962013 -0.15665177 -0.003665296 -0.050633177 0.16102841 -0.28746104
-0.12960914 -0.1558745 0.07423482 -0.0011301832 0.15465239 0.14039876 -0.062308073 0.1910763
0.009960364 -0.24886052 0.20798977 -0.042520892 -0.39693183 0.123698026 -0.16054909 -0.24115574
0.022735437 0.044223517 -0.26386023 0.14489113 0.09091589 -0.20501332 0.12650158 0.11183319
0.08975028 -0.061285447 -0.26528823 -0.269208 0.2591222 -0.04084154 -0.16354513 0.25753784
0.28066763 -0.047433715 0.38639224 0.17342544 -0.10280204 0.10374436 -0.0469266 -0.15636516
-0.060878728 -0.17599173 -0.4780008 -0.0822728 0.123799354 0.24435571 0.2170324 0.14739777
-0.059529804 0.015388529 -0.13102368 -0.27660245 0.051723577 0.20285417 0.022006197 0.21543871
0.12632795 -0.14297055 0.011229067 -0.18372977 -0.37924382 -0.19411701 -0.09577221 0.1295007
-0.2913578 0.1254387 0.19245581 -0.12142477 0.14225118 0.17008646 -0.017512284 -0.18670604
-0.21768723 0.21011195 0.21993129 0.22211197 -0.21874733 -0.10776411 -0.042901766 0.104328156
-0.04031397 0.12910776 0.21356434 0.07794735 -0.12982666 -0.06849678 -0.026970908 -0.16292103
-0.22222213 -0.23014146 -0.23976193 0.08903518 -0.01754604 -0.016534645 0.2622997 0.11014068
0.21452472 0.09745453 -0.16846624 -0.124055445 0.008212042 0.13079658 -0.14534092 0.21476005
0.05418653 0.07405884 -0.054239094 0.19994152 0.22809845 -0.016017511 0.112547785 0.15307023
-0.29142582 -0.46867478 -0.18127081 0.044818565 0.28386012 0.23042695 -0.09417845 0.013569199
0.083401114 -0.3810257 -0.07844518 0.052964643 0.1804051 0.007980572 0.22765584 -0.041986942

sequential/dense/BiasAdd/ReadVariableOp/resource f4 [10]
00000000: 26ac b8bb d413 1a3e 2d98 283d 8be1 0fbd
00000010: 114e 30bd c87d 483d b9a9 76bc 6e9d 813d
00000020: 5f2c 05be 2ea3 1dbd
-0.005635756 0.15046626 0.04116075 -0.035127204 -0.0430432 0.04894808 -0.0150551135 0.063288555
-0.13005207 -0.0384857

sequential/dense/MatMul i1 [10, 9216] scale=0.004491307 zero_point=0
00000000: 0106 0901 0503 02fd 00e7 ff01 01f6 fcfc
00000010: fefa f7ff fc04 00ff 0201 fafc f2f8 fd03
00000020: 0d0c fce0 f2f8 01f7 0002 fdf7 fdfb fb00
00000030: ecff f7fc e300 0201 ec16 fae8 0d04 eb0e
00000040: 02ff fefb 0409 f2fb 00ff f5f9 02fc 01fd
00000050: 0503 00f8 f6ea fff8 01fb eef2 eade f3ef
00000060: f6fc eff1 ebf7 04f5 ebff fdf9 fcfe fa04
00000070: ee02 0104 faf7 f111 fb11 fee4 0add ff06
00000080: f504 fef7 01f7 f1fb f9fc fff5 03fd 00fb
00000090: f5ff f1f4 fce8 fdfd f701 f3fe e8f8 fdf7
000000a0: 0102 f7fb e902 03ef eefe f9eb f8fd f601
000000b0: eaf9 f900 f4ff f3f1 f403 fcfd 05d9 f8fb
000000c0: fd01 07f8 00ec eaf0 08f9 01e7 fbf3 fd03
000000d0: ddfc eefb f4f3 f405 feff eaec 05e7 03f4
000000e0: e700 eee5 ddec f9f6 0407 04f5 ff00 e409
000000f0: defc f8f2 e4fe eb0c ff18 f809 efe8 effd
0.004491307 0.026947841 0.04042176 0.004491307 0.022456534 0.0134739205 0.008982614 -0.0134739205
0.0 -0.11228267 -0.004491307 0.004491307 0.004491307 -0.04491307 -0.017965227 -0.017965227
-0.008982614 -0.026947841 -0.04042176 -0.004491307 -0.017965227 0.017965227 0.0 -0.004491307
0.008982614 0.004491307 -0.026947841 -0.017965227 -0.062878296 -0.035930455 -0.0134739205 0.0134739205
0.05838699 0.053895682 -0.017965227 -0.14372182 -0.062878296 -0.035930455 0.004491307 -0.04042176
0.0 0.008982614 -0.0134739205 -0.04042176 -0.0134739205 -0.022456534 -0.022456534 0.0
-0.08982614 -0.004491307 -0.04042176 -0.017965227 -0.13024789 0.0 0.008982614 0.004491307
-0.08982614 0.09880875 -0.026947841 -0.107791364 0.05838699 0.017965227 -0.09431744 0.062878296
0.008982614 -0.004491307 -0.008982614 -0.022456534 0.017965227 0.04042176 -0.062878296 -0.022456534
0.0 -0.004491307 -0.049404375 -0.031439148 0.008982614 -0.017965227 0.004491307 -0.0134739205
0.022456534 0.0134739205 0.0 -0.035930455 -0.04491307 -0.09880875 -0.004491307 -0.035930455
0.004491307 -0.022456534 -0.08084352 -0.062878296 -0.09880875 -0.15270443 -0.05838699 -0.07635222
-0.04491307 -0.017965227 -0.07635222 -0.0673696 -0.09431744 -0.04042176 0.017965227 -0.049404375
-0.09431744 -0.004491307 -0.0134739205 -0.031439148 -0.017965227 -0.008982614 -0.026947841 0.017965227
-0.08084352 0.008982614 0.004491307 0.017965227 -0.026947841 -0.04042176 -0.0673696 0.07635222
-0.022456534 0.07635222 -0.008982614 -0.12575659 0.04491307 -0.15719575 -0.004491307 0.026947841
-0.049404375 0.017965227 -0.008982614 -0.04042176 0.004491307 -0.04042176 -0.0673696 -0.022456534
-0.031439148 -0.017965227 -0.004491307 -0.049404375 0.0134739205 -0.0134739205 0.0 -0.022456534
-0.049404375 -0.004491307 -0.0673696 -0.053895682 -0.017965227 -0.107791364 -0.0134739205 -0.0134739205
-0.04042176 0.004491307 -0.05838699 -0.008982614 -0.107791364 -0.035930455 -0.0134739205 -0.04042176
0.004491307 0.008982614 -0.04042176 -0.022456534 -0.10330006 0.008982614 0.0134739205 -0.07635222
-0.08084352 -0.008982614 -0.031439148 -0.09431744 -0.035930455 -0.0134739205 -0.04491307 0.004491307
-0.09880875 -0.031439148 -0.031439148 0.0 -0.053895682 -0.004491307 -0.05838699 -0.0673696
-0.053895682 0.0134739205 -0.017965227 -0.0134739205 0.022456534 -0.17516097 -0.035930455 -0.022456534
-0.0134739205 0.004491307 0.031439148 -0.035930455 0.0 -0.08982614 -0.09880875 -0.07186091
0.035930455 -0.031439148 0.004491307 -0.11228267 -0.022456534 -0.05838699 -0.0134739205 0.0134739205
-0.15719575 -0.017965227 -0.08084352 -0.022456534 -0.053895682 -0.05838699 -0.053895682 0.022456534
-0.008982614 -0.004491307 -0.09880875 -0.08982614 0.022456534 -0.11228267 0.0134739205 -0.053895682
-0.11228267 0.0 -0.08084352 -0.121265285 -0.15719575 -0.08982614 -0.031439148 -0.04491307
0.017965227 0.031439148 0.017965227 -0.049404375 -0.004491307 0.0 -0.12575659 0.04042176
-0.15270443 -0.017965227 -0.035930455 -0.062878296 -0.12575659 -0.008982614 -0.09431744 0.053895682
-0.004491307 0.107791364 -0.035930455 0.04042176 -0.07635222 -0.107791364 -0.07635222 -0.0134739205
